models/agModels-predictOutcome/models/NeuralNetFastAI_BAG_L1/S1F2/model-internals.pkl (torch, 179924 bytes, 16 tensors)

weight f4 [19]
00000000: 6442 713f c97a 8d3f 8ea4 693f e853 783f
00000010: f69e 773f ce32 793f 4b26 873f 3e27 813f
00000020: 4012 6f3f 28e8 733f 6b3d 7f3f 3202 7b3f
00000030: a6a5 783f c1fa 803f 447d 623f 3640 6e3f
00000040: f57c 6a3f 7f49 953f 7dfc 803f
0.9424193 1.1053096 0.91266716 0.9700303 0.9672693 0.97343147 1.0558561 1.0090101
0.9338722 0.9527612 0.9970309 0.98050225 0.9712776 1.0076524 0.8847239 0.9306673
0.9159692 1.1663054 1.0077053

bias f4 [19]
00000000: 7017 403d 9916 6cbc b1a7 a6bc 18c4 583d
00000010: ef9c 1c3d 9870 9cbc 0ffd 9fbd 591f e53c
00000020: 3d99 2dbd 6b6b 76bd 41d1 c6bb 6616 84bd
00000030: aec7 393d 3805 2b3d 907f a83b aa5d e93a
00000040: 7101 9a3d 2ffe 95bd f5f7 933c
0.04689735 -0.014409685 -0.020343633 0.052921385 0.0382356 -0.019096658 -0.07811939 0.02796905
-0.042382468 -0.060161036 -0.0060674255 -0.06449585 0.045356445 0.041753024 0.0051421598 0.0017804403
0.07519806 -0.07323872 0.018062571

running_mean f4 [19]
00000000: b363 c838 5e56 803c 98a0 74bb bdc7 d73b
00000010: 899c a9ba 440b 3b3c 8bd3 433c dcaf 103c
00000020: 04b7 b63c 2cd9 ecbc 6514 d43b aeb1 073c
00000030: cc51 613c c6fd 04bc 10c3 1dbc 2f02 463c
00000040: 75cf 063b a1b8 1d3c 2b30 10bc
9.5553136e-05 0.015666183 -0.0037327167 0.00658509 -0.0012940328 0.01141626 0.011952291 0.008830991
0.022304066 -0.02891215 0.006472158 0.008282108 0.013752412 -0.008117145 -0.009629026 0.012085482
0.0020570431 0.0096265385 -0.008800547

running_var f4 [19]
00000000: 8233 7a3f 14f1 793f d8cb 813f fff2 7c3f
00000010: fad3 7a3f 4469 7d3f ed41 813f 2498 7f3f
00000020: 9f5e 7b3f b716 823f d67b 7c3f 1eb9 873f
00000030: 2eef 793f ee0f 803f 6ea6 793f 67e5 863f
00000040: e486 803f 32d8 8a3f 8203 813f
0.97734845 0.9763348 1.0140333 0.9880828 0.979797 0.9898875 1.0098244 0.99841523
0.98191255 1.0163182 0.9862646 1.0603368 0.97630584 1.0004861 0.97519577 1.0538758
1.0041165 1.0847228 1.0079195

weight f4 [200, 19]
00000000: 2a05 473c 7763 113e eafa 22be c878 1dbe
00000010: 6ce8 84bd 8407 a23d ed51 ad3c c99c 573e
00000020: e026 10ba c3db 143d 67be 53bd 652e 3fbd
00000030: c0df 51be b6a2 30be 444f abbd f78e 643c
00000040: 7fce 9a3d 254a 113e 061c f9bd 9df2 0cbe
00000050: 923d cf3d 3a80 653e 530e e1bc d15c 683e
00000060: f844 48bb a257 373d 4ecb 4b3e 33e9 5fbe
00000070: 62d3 fdbd 2adb e3bc b619 90bd 2295 383e
00000080: bea8 5ebe 8479 19be da07 83bd 323f 32be
00000090: b19b ddbd 1100 cc3d e29f e93d 310f f73d
000000a0: 54de 3d3d 72d4 f5bd bdb5 4e3d 3f31 4cbe
000000b0: d26e 30be 20dc eabd 94d1 243e d0b8 0a3e
000000c0: cb0f a6bd 801f 333c 58a0 263e fb83 493e
000000d0: d1b0 893d 6442 903d 927d 2b3e 4514 47be
000000e0: 77f9 1a3d 0e1e 17be 8271 0dbe c3da c5bd
000000f0: 02b7 f53d 5620 ce3d 223f d7bd 7f6c ab3d
00000100: 75d3 173e bdec e8bc 47e6 1f3c d6a8 9b3d
00000110: 6cbc 263e f483 753e 90b7 53be e872 6dbd
00000120: 076a bb3d 7cb7 3f3e 555f 583e b53a 4f3e
00000130: 0a80 be3d 3e06 2fbe e3f7 833d c84a f3bd
00000140: 2229 4abe dc2b 5a3e 1500 483e d1bb 60be
00000150: 0967 373d f5ee fbbc 60b1 263c fbe0 11bd
00000160: a009 d83d 2b61 23be a34d 793d 29e5 023e
00000170: 00e7 223e ff97 b93d b97b 72be 53cf 24be
00000180: d552 fd3d fce2 3b3d 951f 28be 857e c6bd
00000190: b434 6b3e 271e 793e ba5d 92bd 5d9f 13bd
000001a0: e4a5 5abe 71e2 ffbc cbc2 36be 783d 13be
000001b0: 2c7b 963d c62f 553c 6926 1cbd 848c 2e3e
000001c0: 6926 cdbd d446 303e 12ab 303e 7760 89be
000001d0: 47e8 19bd b09f f43c d013 0d3d f9d8 c13b
000001e0: 6c0a ad3c e86d 213c 635a dabd e898 8f3d
000001f0: af20 46be 0172 28be a31f d7bd b7f1 30bd
00000200: 8d4a a3bd 650b 14be a668 73bc f114 cc3d
00000210: 676a 35be 4440 23bd 0193 0e3e 612f 10bd
00000220: a734 bcbc a562 46bd 30cb 5e3d f912 0e3e
00000230: 0fc3 373e 5711 023e 8e4a 6e3e 0c70 5fbd
00000240: e6cb 89be 3f4d 11be add4 233e 0f19 343d
00000250: b4b0 20be 8a5c 24be 4646 72be 361d 57be
00000260: 4c04 84bd 3f5e 8a3d 7608 ed3d a261 68be
00000270: 2047 123e 4dfe 5bbe 0eb5 9fbd 4415 d0bd
00000280: 4dab a6bc 0d9d 6ebd 8983 8dbe dd41 77be
00000290: d1b1 b3bd bc77 153d 743e c7bd 5606 0b3d
000002a0: a5ba 35be 578e 683d e9ac 293e f6ad a6bd
000002b0: d30e 713e 9b30 823d b0da 53be cb7e 213e
000002c0: de4a b1bc c491 01be f26a 193e 3495 53be
000002d0: b605 ec3c ccc4 6cbc 10a4 1b3e d1f2 533d
000002e0: aa27 0f3e 4311 ac3d fec5 42bd b80c 6abd
000002f0: a110 47be 296d d73d acb1 563e 3541 613e
00000300: c317 0fbe fe2b 433d 4b06 25be 82ac 9bbd
00000310: 0b8e 2ebe 9460 b83d 3b19 15be 307b 97b9
00000320: d46d 203c 56b2 2c3e a927 44be bff3 28be
00000330: e2b8 e5bd 9c99 ed3d 0122 05bc 115d 533e
00000340: 6ab8 ae3c cc39 5c3d 1eac b4bd a66a 16bd
00000350: 09fb 603d e321 e2bc c7f5 d7bc 9803 9f3c
00000360: fb10 21be 2126 08be a3f4 4c3e 5974 3bbe
00000370: f74e bfbc 1f19 5c3e dfa1 b93d c85c cb3c
00000380: 6001 6ebe 7f2d ed3d 2d2d 39be 5006 85bd
00000390: 9c04 cfbd 4cf9 4e3c 73b0 503c 393b 233e
000003a0: f9f5 24bc d913 773e 3531 783e ba00 22be
000003b0: e28b 533d a7cb 03be 1ef8 2abe 1b2d 453d
000003c0: a136 aa3d f9e2 cd3d bfe7 b1bd 51a2 32bd
000003d0: 8b20 003e 723c 0abe ff12 363e 9d18 1dbe
000003e0: 544c dc3b 4dda 3bbc 9dd5 a4bd 00af 5d3d
000003f0: 6a02 493e 143c 97bd 8907 e8bd 83da 2ebd
0.012147227 0.14198099 -0.15916029 -0.15378106 -0.064896435 0.0791159 0.02115723 0.21055903
-0.0005498957 0.036342394 -0.051695254 -0.046675105 -0.2049551 -0.1724957 -0.08364728 0.013950101
0.07558917 0.1418844 -0.12163548 -0.13764425 0.101191655 0.22412196 -0.02747265 0.22691657
-0.0030558687 0.044761308 0.19901773 -0.21866302 -0.12393834 -0.027814467 -0.07036154 0.1802564
-0.21744058 -0.14987761 -0.06397982 -0.1740692 -0.108207114 0.0996095 0.11407448 0.120634444
0.046354607 -0.12003411 0.050466288 -0.19940661 -0.17229775 -0.11467767 0.16095573 0.13547063
-0.08108481 0.010932803 0.16272104 0.19679253 0.06723178 0.07043913 0.1674712 -0.19441326
0.037835564 -0.14757559 -0.13812831 -0.09660866 0.119977966 0.10064761 -0.105100885 0.08370303
0.14826758 -0.028433198 0.009759492 0.07600562 0.16282815 0.23976117 -0.20675492 -0.05797091
0.091510825 0.18722337 0.21130116 0.20237239 0.09301765 -0.17092225 0.06443765 -0.11879498
-0.19742253 0.21305794 0.19531281 -0.21946646 0.044775996 -0.030753592 0.010174125 -0.03561495
0.10548711 -0.15955035 0.060865056 0.1278273 0.15908432 0.09062194 -0.23680009 -0.16094713
0.123693146 0.045870766 -0.16418298 -0.096921004 0.22969323 0.24327908 -0.07146783 -0.036040653
-0.21352345 -0.031235905 -0.17847745 -0.14378917 0.07347712 0.013011878 -0.03812257 0.1704579
-0.10017092 0.17214519 0.17252758 -0.2683141 -0.037575033 0.029861301 0.034442723 0.0059157577
0.021123134 0.009852864 -0.10661771 0.070115864 -0.19348405 -0.16449739 -0.10504081 -0.043199267
-0.07973204 -0.14457472 -0.014856493 0.09964932 -0.1771637 -0.03985621 0.13923265 -0.035201434
-0.022974325 -0.04843392 0.054392993 0.13874425 0.17945503 0.12701927 0.23270628 -0.054550216
-0.26913375 -0.14189623 0.15999098 0.04396921 -0.15692407 -0.16050926 -0.2365962 -0.21007237
-0.06446132 0.06756257 0.115738794 -0.22693494 0.14284945 -0.21483727 -0.07798205 -0.10160306
-0.020345354 -0.058255244 -0.27639416 -0.24146219 -0.0877415 0.03649114 -0.09728709 0.03394159
-0.1774698 0.05677637 0.16569866 -0.08138649 0.23540811 0.06356927 -0.20688891 0.15771024
-0.021642145 -0.12653261 0.14982203 -0.20662385 0.028811317 -0.014451217 0.15199304 0.05174524
0.13979974 0.0840173 -0.0475521 -0.057141036 -0.19439937 0.105188675 0.20966214 0.21997531
-0.13973908 0.047649376 -0.16115682 -0.07601263 -0.17046373 0.09002796 -0.14560406 -0.00028892746
0.00979181 0.16864905 -0.19155754 -0.16499232 -0.11216904 0.11601564 -0.008125783 0.20640971
0.02132817 0.053766057 -0.08821891 -0.0367228 0.054926906 -0.02760405 -0.026362313 0.019410893
-0.15729134 -0.13295795 0.20015197 -0.18306102 -0.023353083 0.21493958 0.090640776 0.024824515
-0.23242712 0.11580943 -0.1808364 -0.06495345 -0.10108301 0.012632679 0.012737381 0.1594056
-0.01006841 0.24128665 0.24237521 -0.1582059 0.051647075 -0.12870656 -0.16696212 0.04813872
0.08311201 0.10053057 -0.0868678 -0.04361183 0.12512414 -0.1349962 0.17780684 -0.1534142
0.006722966 -0.011465621 -0.08048556 0.05412197 0.19629827 -0.07384506 -0.11329562 -0.042688858

weight f4 [200]
00000000: cc47 7d3f e5f1 813f c044 793f dab3 793f
00000010: 2041 7d3f 7739 7b3f 9dfc 833f c520 7d3f
00000020: 9f63 803f c6e1 713f 4ec3 873f e87f 703f
00000030: 256e 873f 82d9 763f 78c0 823f d5a6 843f
00000040: f9d6 833f 567e 813f c317 7a3f 252d 833f
00000050: aa5e 793f 8617 753f 8ff8 873f 4425 7e3f
00000060: 08f2 743f 9141 883f da19 843f 48b0 7d3f
00000070: 5a15 8c3f 6ae3 793f 2cf6 7e3f 4049 703f
00000080: 19d5 7b3f 307f 7d3f 5702 803f d26c 7e3f
00000090: e21f 863f d648 793f be16 793f a1f5 833f
000000a0: 9c34 823f 00a1 813f a30b 7b3f 150a 803f
000000b0: 262b 833f f9c1 803f 9dd7 853f 3abd 773f
000000c0: 991f 783f fce8 833f 2917 7c3f 104f 7c3f
000000d0: b3c4 823f f628 803f 705e 753f 9130 823f
000000e0: 0871 803f d329 823f dead 783f 041c 7c3f
000000f0: bd16 773f 22b3 7d3f 191e 833f 01d0 793f
00000100: 03ce 7b3f 206f 7d3f c619 823f a351 843f
00000110: d7bb 7d3f c835 783f d2dd 7c3f cac4 843f
00000120: be15 863f ba67 843f 71f9 7f3f 2fc6 7e3f
00000130: 617c 803f 3719 873f bc15 813f 0ad2 7a3f
00000140: 6d14 853f 4855 833f 1b9a 803f 1c47 883f
00000150: 1126 823f 7094 7f3f d325 843f 4bac 773f
00000160: 863d 793f ebcb 7a3f 3c50 823f e08d 773f
00000170: 0d22 733f a8ab 7c3f 9e7c 813f e974 833f
00000180: 5bf4 7f3f bc4f 813f 3344 823f 819d 7a3f
00000190: c072 823f 228e 833f de9d 793f cd4b 783f
000001a0: 3a4d 733f 12e3 863f 446c 863f 4be0 793f
000001b0: 3c21 7e3f 35e6 823f 36ae 7b3f 9e4c 7c3f
000001c0: 87cb 763f 6cae 763f 03b1 793f fb82 873f
000001d0: 59ad 803f 49f9 803f 7a5c 7b3f 4458 883f
000001e0: c4c7 853f 705e 7c3f 7a7c 7f3f d44d 843f
000001f0: 73fc 763f 229d 783f 825e 823f 1dcd 773f
00000200: c4ca 7e3f fca1 7c3f aa00 7b3f 196b 7f3f
00000210: e4a4 7c3f 0afb 7f3f 9694 723f e4ca 793f
00000220: f38e 833f 95b1 803f 5281 803f fa47 803f
00000230: 6bdf 7f3f 6173 823f 74bf 7e3f 1c64 803f
00000240: d026 793f e1d4 823f d75b 7e3f c602 803f
00000250: 69f2 7d3f d902 7d3f 1d8e 823f 4470 833f
00000260: 130b 7f3f 7d84 803f 9b4f 7c3f 4300 863f
00000270: 752c 823f 5365 793f 61ba 803f 08c2 843f
00000280: 1ba5 803f f2d6 7f3f 04a2 7c3f 8b48 7e3f
00000290: 4d78 7e3f c51a 7a3f 1749 813f 0294 833f
000002a0: aef6 7a3f 7f0b 803f 77ff 863f fe4f 823f
000002b0: b1d1 803f d8de 813f e565 893f 62a2 7e3f
000002c0: b9c0 7a3f 0f8d 7a3f a98d 8b3f e08d 7e3f
000002d0: cd6b 793f 5479 733f 2708 833f b9a3 7d3f
000002e0: 2d8b 773f 0143 773f 4336 793f 1c0c 833f
000002f0: d6f3 6f3f 426e 793f 0bee 833f 0ebe 7d3f
00000300: dfcd 813f 5a8e 893f 78fd 7b3f 2548 803f
00000310: 15af 823f f0d6 803f 3237 833f 0998 813f
0.9893768 1.0151945 0.9737053 0.97540057 0.989275 0.9813456 1.0311466 0.9887813
1.0030402 0.9448513 1.0606477 0.9394517 1.0580488 0.9642564 1.0214987 1.0363413
1.029998 1.011668 0.9769251 1.0248152 0.9741007 0.9573902 1.0622729 0.9927561
0.9568181 1.0645009 1.0320389 0.9909711 1.0944016 0.9761263 0.9959438 0.9386177
0.98372036 0.990222 1.0000714 0.99384797 1.047848 0.97376764 0.97300327 1.0309335
1.0172305 1.0127258 0.9806463 1.0003077 1.0247543 1.0059196 1.0456425 0.9677311
0.96923214 1.0305476 0.9847284 0.9855814 1.0216278 1.00125 0.95847225 1.0171071
1.0034494 1.0169014 0.971403 0.9848025 0.9651907 0.9910146 1.024356 0.97583014
0.98361224 0.9899769 1.0164115 1.0337414 0.99114746 0.96957064 0.9877597 1.0372555
1.0475385 1.0344155 0.9998999 0.99521154 1.0037957 1.055457 1.0084758 0.97976744
1.0396858 1.0260401 1.0047029 1.0646701 1.0167867 0.9983587 1.0324043 0.96747273
0.973595 0.97967404 1.0180736 0.9670086 0.9497383 0.98699427 1.0116155 1.0270053
0.9998223 1.0102458 1.0177063 0.9789658 1.0191269 1.027775 0.9750651 0.9699066
0.95039713 1.0538046 1.050179 0.9760787 0.9926946 1.0226504 0.983127 0.9855441
0.9640431 0.96359897 0.97535723 1.0586847 1.0052902 1.0076076 0.98187983 1.0651937
1.0451589 0.985816 0.9979931 1.0336251 0.96478957 0.97114766 1.0185091 0.96797353
0.99528146 0.9868467 0.9804789 0.99772793 0.98689103 0.9999243 0.94757974 0.9757521
1.0278 1.0054194 1.0039465 1.0021966 0.99950284 1.0191461 0.99510884 1.0030551
0.9732485 1.0221215 0.99358886 1.0000846 0.99198014 0.9883247 1.019962 1.0268636
0.9962627 1.0040432 0.9855897 1.046883 1.0169817 0.97420233 1.0056878 1.0371714
1.0050386 0.99937356 0.98684716 0.9932944 0.99402314 0.976971 1.010043 1.0279543
0.98032653 1.0003508 1.0546712 1.0180662 1.0063993 1.0146132 1.0734221 0.99466527
0.9795032 0.9787149 1.0902606 0.99435234 0.97430116 0.9510701 1.0236863 0.99077946
0.9669674 0.96586615 0.9734842 1.023807 0.9373144 0.97433865 1.030702 0.99118125
1.0140952 1.0746567 0.9843364 1.0022017 1.0209681 1.0065594 1.0251219 1.0124522

bias f4 [200]
00000000: 3926 bebc ee20 373d 279a 68bb 0257 f9bc
00000010: 9ba8 47bd 56ff edbb c5c4 bbbc dde1 593d
00000020: 511b 40bc 87ab a53c a436 76bd 0433 8abd
00000030: 12ce 16bc 7b2d 0dbd 9bc1 56bd df62 863c
00000040: ad0d b93b b214 9a3b 38a6 713d ea81 7f3c
00000050: 256a 1d3d c7e4 ce3c 5d7b cc3c b382 5dbc
00000060: 3f1a b3bc 07a6 a1ba 6aff 1bbd 3278 6f3b
00000070: d8c1 57bd 403a 19bd b5ac 0b3d 7b8d 9e3b
00000080: 2f61 093d 1cd6 8ebb 0169 793d 28ce 4e3d
00000090: ea02 9ebc da0e 79bc f4ec a63c 6ede 5bbb
000000a0: c7ad 9d3b 121c e8bc 287f 7abc 86e5 243d
000000b0: 0f44 a6bc d0f7 93ba a887 abbc 9fad b6bc
000000c0: 5156 523d 2736 99bc ab51 a13d 30ab 173d
000000d0: 5ba8 1abd cacf 043d e90d 053d fb69 943c
000000e0: a454 ab3d 1c8d 2abb 2b7b 953c 6779 50bd
000000f0: 99a0 a53c cca3 043d 76da e63b 9136 bdbc
00000100: 2139 163d a0eb 70bd bad3 a6bd 808b 9ebc
00000110: adc1 1bbc 2435 ac3b 06b2 093d e28e 47bd
00000120: 8fb0 bbbc 0056 3e3a 1d05 06bd 1c92 1cbc
00000130: 931e 96bc 58db dfbd a394 0a3d 777c 0dbd
00000140: 38ab 02bd a44d 0f3d c060 183d 8d11 07be
00000150: 9c59 4bbd 83e3 d9bc a9db 6abb bc38 bf3c
00000160: 074d 583d dae7 ec3b d6fb e1bc 2509 31bc
00000170: 58da 41bd 96b0 dcbc fa74 12bc 5a7b 1bbd
00000180: 6065 10bc d08e febb c182 003d 540b 5cbc
00000190: 2459 7b3b ed3f dbbc 280b 0ebd 2d48 083d
000001a0: 215f 433d 0dd8 a0bd 0281 cebc e6ed 903d
000001b0: ade7 283d 0cef d3bc 0fbd 453c 7cd3 edbb
000001c0: 41af 383c ca8d cf3c 84b3 973c 028f 85bd
000001d0: 8c81 f53b 60e5 a5bc 9119 dd3c 4fa1 39bd
000001e0: f5fa 97bc d4bd f33b 2c6e 2e3c 63a0 78bc
000001f0: 845c 16bc 3803 83bc 9b70 e4bc c112 b03d
00000200: fb9e 1b3c 2adc 04bd 3ebf cb3c e13d 7cbc
00000210: 0a57 63bc ecf7 893d 43ea 023d f363 5c3d
00000220: 298f e33c 2afb fabc 22ae 1bbc 0d66 d1bc
00000230: c8bb 74bc e2c7 e73c a74f aabc 92ce a43c
00000240: 98ab 05bd 0a15 e7bc d828 50bc 0391 5cbb
00000250: eb55 233d cc64 323c 2dec 233d 28ef c43b
00000260: 56c7 303a 7b1b c7bc 8a70 363d 0c8e 8a3c
00000270: 0e01 6abb f44f 0c3b 5fcf 7bbd 4682 44bc
00000280: 4eb8 683b fbc2 3abd 3554 03bd a445 5fbc
00000290: 46d4 cdbc 0206 0dbc d318 b23c 3dcc 13bd
000002a0: fba2 ae3c fd77 33bb a30d 87bd 2178 b73d
000002b0: 9edb 85bc ca5b a03c 29e7 6dbd 8728 8d3c
000002c0: ef43 8bbc 3878 e43c 129f 7cbd ecbd 003d
000002d0: f1ff d1ba f9e0 023d 0430 013d c732 69bd
000002e0: 6d58 263d f42d 233c 3a65 dabc d69f d2bb
000002f0: ac93 6cbc 59e7 98bc 98b6 593a 4873 d2bc
00000300: bf09 59bd 5e39 49bd 9c88 e83d 1066 49bd
00000310: 0af5 163d 241c 083c 55eb a33c 3729 a8bc
-0.023211585 0.04470914 -0.0035492273 -0.030436996 -0.04874478 -0.0072631044 -0.022920975 0.053193916
-0.011725263 0.020223392 -0.060110703 -0.06748012 -0.009204404 -0.0344672 -0.05243073 0.016404567
0.0056473822 0.004702174 0.05899641 0.015594939 0.038431305 0.025255574 0.024961168 -0.013519931
-0.021863101 -0.0012332805 -0.03808538 0.0036540148 -0.0526751 -0.037409067 0.034100253 0.004838643
0.033539947 -0.00435902 0.060891155 0.050489575 -0.019288499 -0.015201295 0.02037666 -0.0033549326
0.0048119756 -0.028333697 -0.0152891055 0.040257953 -0.020296125 -0.0011289064 -0.02093871 -0.022299586
0.05135185 -0.01870258 0.07876905 0.03702849 -0.037758213 0.032424726 0.03248397 0.018116942
0.08365753 -0.002602405 0.018247208 -0.05089703 0.02021818 0.03238277 0.0070450855 -0.023097308
0.036675576 -0.05881846 -0.081458524 -0.019353628 -0.009506625 0.0052553583 0.033617042 -0.048720248
-0.022911338 0.000726074 -0.03271972 -0.00955632 -0.018325126 -0.109305084 0.033833157 -0.034542527
-0.03190157 0.034986153 0.037201643 -0.13190289 -0.049646005 -0.026597744 -0.0035836494 0.023342483
0.052807834 0.0072297873 -0.027585905 -0.010805403 -0.04732737 -0.026939671 -0.008939022 -0.037959434
-0.008813232 -0.0077684894 0.031374697 -0.013430435 0.0038352692 -0.02676388 -0.03467861 0.033271957
0.047698144 -0.078537084 -0.025208 0.070766255 0.04123657 -0.025870822 0.012069001 -0.007257877
0.011272253 0.025336165 0.018518217 -0.06521417 0.00749225 -0.020250976 0.02698973 -0.04531985
-0.018552283 0.0074384008 0.010646384 -0.015174958 -0.009177331 -0.015992746 -0.027885726 0.08597327
0.009498353 -0.032436527 0.024871465 -0.015395612 -0.013875732 0.067367405 0.03196169 0.053806257
0.027778225 -0.030637342 -0.009501966 -0.025561357 -0.014937349 0.028293554 -0.020789934 0.020118032
-0.032634348 -0.028208274 -0.01270505 -0.003365577 0.03987686 0.01088829 0.040020157 0.006009955
0.00067435706 -0.024305096 0.04454092 0.016913436 -0.0035706195 0.002140996 -0.06147706 -0.01199395
0.0035510245 -0.045596104 -0.032062728 -0.013627443 -0.025125634 -0.008607389 0.021740353 -0.03608345
0.02131795 -0.002738475 -0.06594398 0.0895846 -0.016340073 0.019575018 -0.05808178 0.017231239
-0.017000167 0.027889356 -0.06167514 0.031431124 -0.0016021711 0.031952832 0.031539932 -0.05693319
0.040611673 0.009959687 -0.026659597 -0.0064277453 -0.014439505 -0.018665003 0.00083051017 -0.025689736
-0.05298781 -0.049126975 0.11354181 -0.0491696 0.03685478 0.0083074905 0.020009676 -0.020527465

running_mean f4 [200]
00000000: c8e9 313e c0d4 893e 0d4b 603e f8ce 2e3e
00000010: 6e45 633e 44c5 4b3e b59e 693e e738 303e
00000020: 5bce 913e f085 4f3e 9d2d 4d3e 66b4 5a3e
00000030: 8700 553e 6c8b 713e 56a4 483e 0ab3 303e
00000040: 6dc7 493e 5264 9a3e d7df 813e 835a 973e
00000050: ba0d 933e 4932 933e 4ea1 183e a227 b43e
00000060: 8698 7e3e f26a 643e a798 7a3e 7bb9 573e
00000070: 3766 7f3e 6866 4e3e ac6b 773e d48c 623e
00000080: 8514 533e e2a7 803e a370 423e fbf3 533e
00000090: 5244 273e b6f4 7f3e 368d 613e 6ec7 a63e
000000a0: b733 993e 8f0d 903e 8d35 533e 6da4 713e
000000b0: b2dc 283e 92c0 3b3e c32d 573e f09d 253e
000000c0: 1154 613e 6706 953e ced1 633e 84ae 923e
000000d0: 95c6 423e f194 5a3e c6c2 543e 5d15 963e
000000e0: 6e3d 813e ccd7 233e 6a74 483e 7a55 843e
000000f0: 33e4 4e3e 618b 5f3e 53ad 9f3e 830c 603e
00000100: b0c2 633e 9e85 8f3e 6e37 943e 98aa 493e
00000110: c20f 6c3e 952e 4c3e 1171 593e e9aa a63e
00000120: e333 1c3e 4df1 733e 6248 4a3e 6338 533e
00000130: a5fc 433e 9f2b 513e 7a9c 8c3e 68e6 253e
00000140: 26df 823e bc87 8d3e c7bc a13e 00fe 123e
00000150: 8e63 283e 002e 6e3e 8243 8b3e d14d 473e
00000160: c0bb a13e ca70 773e 6352 953e 471c 483e
00000170: 1642 713e d45d 803e 0509 4b3e 5c8b 503e
00000180: 59a0 8a3e 99ab 663e fb7c 9a3e 48c6 603e
00000190: f35d 633e 93c0 543e 1024 893e a063 5b3e
000001a0: 69f5 863e 54e6 7c3e 5691 413e 7ea1 3d3e
000001b0: e763 673e 014c 5f3e 57a1 be3e 4a1a 443e
000001c0: 9bdb 7e3e d31f 813e bb91 303e 00b2 fb3d
000001d0: c758 933e 7f49 703e 205f 383e 9b6e 363e
000001e0: 79fc 523e 9e36 a03e 77f6 323e 740a 4e3e
000001f0: df6e 6a3e 80df 653e f6ea 5f3e 785a 4b3e
00000200: 9eee 823e d9da 473e 1d26 973e 3b24 863e
00000210: 92ea 563e 5eb5 513e 63de 443e 2e11 483e
00000220: 54e5 953e fa95 a23e 5a86 523e b79d 283e
00000230: 8eaf 213e 7f0f 693e 6ee1 5f3e 5a81 613e
00000240: b986 5a3e 5974 503e 4cf7 613e 6a49 873e
00000250: 8962 5f3e 7d33 4f3e f251 3c3e 2677 a23e
00000260: 6ef8 903e 3933 753e 3e5d 853e dc67 1f3e
00000270: 27c2 793e bdae 583e a515 233e 616d 0c3e
00000280: 62a1 313e ed06 613e 0ff4 293e 37dc 593e
00000290: ec9a 843e 44fc 913e ba73 233e cd33 5e3e
000002a0: ec31 3d3e 6ee0 5c3e 2fb7 4b3e b279 5b3e
000002b0: f666 b53e 9fce 9c3e 44be 963e 08c0 413e
000002c0: 9991 033e 5f29 8a3e 6f02 573e 3f37 5f3e
000002d0: 9113 5b3e 5d41 503e b82c 8c3e e8f0 823e
000002e0: 0d90 7c3e e7c9 773e 2d3f 693e f13d 823e
000002f0: 244d 763e 488f 633e 0028 483e 0140 333e
00000300: 95e7 343e a8a1 0d3e 585c 853e f5c0 6e3e
00000310: daec 493e caed 373e 50be 3d3e 75f3 583e
0.17374337 0.26920128 0.2190363 0.1707114 0.22194454 0.1989947 0.22814448 0.17209207
0.2847775 0.20265937 0.20036931 0.21357879 0.20800982 0.23588341 0.19593939 0.17255798
0.19704981 0.30154663 0.2536609 0.29561242 0.2872141 0.28749302 0.14905283 0.35186487
0.2486287 0.22306421 0.24472295 0.21066849 0.24941336 0.20156252 0.24162167 0.22124034
0.20613296 0.25128084 0.1898828 0.2069854 0.16334656 0.24995694 0.22026524 0.32574028
0.29922268 0.28135344 0.20625897 0.2359788 0.16490439 0.18335178 0.2101355 0.1617353
0.22004725 0.29106447 0.22248003 0.2864877 0.19021066 0.21345879 0.20777425 0.29313174
0.2524218 0.16000289 0.19575658 0.25846463 0.20204239 0.21830513 0.31186923 0.21879773
0.22242236 0.2803163 0.2894854 0.19693983 0.23052886 0.19939645 0.21234538 0.3255227
0.15254168 0.23822518 0.19754174 0.20626979 0.19139345 0.20426796 0.27463132 0.16201174
0.25560874 0.2764262 0.31589338 0.14354706 0.16444227 0.23259735 0.27199942 0.19463278
0.31588554 0.2416412 0.2916442 0.19542037 0.23560366 0.25071585 0.1982766 0.20365661
0.2707546 0.22526397 0.30173478 0.21950638 0.22203808 0.20776586 0.26785326 0.21424723
0.26359108 0.24697238 0.18903098 0.18518636 0.22596703 0.21806337 0.37232468 0.19150653
0.2488846 0.25219592 0.17243092 0.1228981 0.2877867 0.23465537 0.18005037 0.1781563
0.20604123 0.3129167 0.17476831 0.20121175 0.22893856 0.2244854 0.21866974 0.1985873
0.25572675 0.19517078 0.29521266 0.26199517 0.20987919 0.20479342 0.19225459 0.19537804
0.29276526 0.31755048 0.20559064 0.16466413 0.15789625 0.22759818 0.21863338 0.22022
0.21340455 0.20356883 0.22066993 0.26423198 0.21814932 0.20234485 0.18390635 0.31731528
0.28314537 0.23945321 0.260477 0.15566963 0.2439047 0.21160407 0.15926225 0.137136
0.17346719 0.21975298 0.16597007 0.21275412 0.25899446 0.28512776 0.15962115 0.21699448
0.18476075 0.21569988 0.19894098 0.21433142 0.35430115 0.3062639 0.29442036 0.1892091
0.1284851 0.2698469 0.20997022 0.21798418 0.21394183 0.20337434 0.27377868 0.25574422
0.24664326 0.24198113 0.22778006 0.25437883 0.24052864 0.22222626 0.19546509 0.17504884
0.17666467 0.13831198 0.26047015 0.23315795 0.19719258 0.17961803 0.1852963 0.21186621

running_var f4 [200]
00000000: 2824 ae3d 37b5 073e 8243 bf3d 109a ae3d
00000010: 29e8 043e 3bc1 973d be4c b93d edc2 6d3d
00000020: b4c1 043e 64ee a13d bc4f 053e 4bc2 9b3d
00000030: 0b7d a63d 48b5 103e 0b09 fa3d 720e 493d
00000040: cb46 853d 95cc 483e 3461 0b3e ae06 403e
00000050: 31d7 293e d4f9 263e e750 6d3d f385 8a3e
00000060: f4ae 0c3e d6c6 0d3e d75a 163e 0079 283e
00000070: 5363 7d3e f7ac f33d 5eeb f53d 2d8d 033e
00000080: 25b2 a63d fb13 b43d 6faa c03d 79db d03d
00000090: c856 943d 10d0 4d3e 19b5 c63d e994 6d3e
000000a0: 3e2e 2b3e 1c43 153e 5420 c43d a334 af3d
000000b0: 4cc6 673d e1e9 963d d8d1 2f3e 126b 813d
000000c0: f533 d13d c1c7 313e bbc9 c53d cc9d 113e
000000d0: 922d a83d d15e c23d 5aff a93d e5c3 423e
000000e0: 6dd8 c83d e533 5f3d af28 ac3d bb4c 353e
000000f0: d0e5 1d3e 5594 973d 23d5 383e fac5 d63d
00000100: 9771 f53d 7907 403e 8b1d 853e 7b3f d53d
00000110: 9ea8 fa3d 76b4 b03d 9807 a53d f1ad 513e
00000120: abe4 dd3d 920f e13d fa17 a73d 8b30 c93d
00000130: dbc3 a43d db46 2f3e 9798 093e 8310 793d
00000140: 2106 233e ba97 2e3e 1d62 2c3e 60e4 053e
00000150: f663 a33d 16de 223e 65a0 283e 422e cc3d
00000160: acd8 3b3e a60b 003e e6bd 353e 4963 983d
00000170: ef23 c03d 6186 243e 9918 bc3d aefc c73d
00000180: e7fc 083e 1382 c73d fab9 373e 40ad e13d
00000190: 1777 de3d d74d ec3d bd1a 153e ba1a c93d
000001a0: f083 223e df27 ea3d 8ea3 103e 4280 933d
000001b0: f66a b73d 92b0 a73d bcd5 813e 13ff a83d
000001c0: 243d f63d c7b5 e13d 6c7d 893d ed2d c13d
000001d0: a187 3d3e 627d fe3d 3e74 c93d b094 933d
000001e0: 0e29 943d ac6c 553e b92a 933d 0758 cb3d
000001f0: d2ee dd3d b4a4 cc3d 25b8 673e 478c b93d
00000200: bfa5 db3d 9f85 903d 2b6e 203e abde 033e
00000210: 3c57 7b3d 50fa a43d 8172 713d 11a8 763d
00000220: 15b3 343e f18b 333e d0a8 ba3d d74f ae3d
00000230: 3b88 3b3d 9d0f 193e 7fa7 d93d 9555 cb3d
00000240: 443a cc3d 7e49 b93d 4021 d43d 2489 0e3e
00000250: e427 ce3d d08e 9a3d ccf4 983d b1f4 313e
00000260: 0e90 493e d297 0d3e ec9f 473e 0008 b33d
00000270: e14d f83d 4f9d bd3d 31db 0e3e 367d 773d
00000280: ac04 d03d 27cb 043e ae39 893d ccd0 de3d
00000290: cb20 023e 231a 1e3e 93eb 673d 5c25 c53d
000002a0: c57b 693d 67db ec3d d57e ee3d e40d ef3d
000002b0: 8e8f 763e 2455 303e f872 3a3e c878 b93d
000002c0: ab8a 323d d00c 123e 0953 0c3e da85 d83d
000002d0: 6683 e03d 833c e03d 3191 063e fdf3 f13d
000002e0: 84ed 003e ad65 d23d 7009 c63d 09c3 db3d
000002f0: feaa f93d 59bf c13d 3f2a a83d cb2e d33d
00000300: 0aae df3d ba99 f53d 55b9 023e 9d6f 153e
00000310: 2e67 993d 1fae 813d 10ad 923d 1bc5 b63d
0.0850299 0.13252722 0.09339048 0.08525479 0.12979187 0.07409903 0.090478405 0.058047224
0.12964517 0.079067975 0.13018698 0.07605418 0.08129319 0.14131653 0.12208756 0.04908604
0.06507643 0.19609292 0.13611299 0.18752548 0.16585995 0.1630624 0.057938483 0.2705532
0.13738614 0.13845381 0.1468309 0.16452408 0.2474492 0.11898225 0.12007783 0.12846823
0.08139447 0.087928735 0.09407508 0.10198111 0.07243115 0.20098901 0.097025104 0.23201336
0.16716859 0.14576381 0.095764786 0.085549615 0.056585595 0.073688276 0.17169893 0.0631925
0.10214988 0.17361356 0.09657618 0.14220351 0.08211817 0.09490741 0.083006576 0.1902004
0.09806905 0.05449285 0.08406197 0.17705052 0.15419698 0.07401339 0.18050055 0.1048698
0.11984556 0.1875285 0.25999102 0.104124986 0.122391924 0.0862817 0.08058089 0.2047651
0.108346306 0.10989298 0.0815887 0.09823712 0.08045169 0.17116873 0.13437115 0.060806762
0.15920307 0.17050067 0.16834302 0.130754 0.079780504 0.15905032 0.16467436 0.099697605
0.18344373 0.12504444 0.17748222 0.07440812 0.09381854 0.16066886 0.09184379 0.09764992
0.13377725 0.097416066 0.17942038 0.11019373 0.10862558 0.11538284 0.14560981 0.09819551
0.15870643 0.11433386 0.14124891 0.072021976 0.08955948 0.08187975 0.2535838 0.082517765
0.120233804 0.110209994 0.067133754 0.09432588 0.1850877 0.124262586 0.098366246 0.07206094
0.07234393 0.20842236 0.07185883 0.09928899 0.10836567 0.09992352 0.2262884 0.09059959
0.10724973 0.07056736 0.15667026 0.1287791 0.06136249 0.08055556 0.05894709 0.060218874
0.1764644 0.17533852 0.0911423 0.08511322 0.045784216 0.14947362 0.106276505 0.09928433
0.09972051 0.09047221 0.103579044 0.13919502 0.10066202 0.075467706 0.07468566 0.17378499
0.19683859 0.13827446 0.19494599 0.0874176 0.12124229 0.0925852 0.13950802 0.060422145
0.10157141 0.12968121 0.06700455 0.108796686 0.12707822 0.15439658 0.056621145 0.09626266
0.0570028 0.11565285 0.11645285 0.11672571 0.240782 0.17219979 0.1820792 0.0905624
0.043589275 0.142627 0.1370355 0.10572405 0.10962562 0.10949042 0.13141324 0.11814115
0.12590605 0.10273299 0.09669769 0.107305594 0.12190817 0.09460325 0.08211183 0.103116594
0.10921867 0.11992212 0.12766011 0.14593358 0.07490383 0.06332039 0.07161915 0.08924314

weight f4 [100, 200]
00000000: af1c b83c 5b20 803c 11b9 7dbd ef04 9cbc
00000010: 817a e0bc a319 a33c a605 583b f7ac 683d
00000020: 0902 d43c f026 513d 389e 013d a583 8ebc
00000030: 96cb 1fbd 4dcb 44bd 488b 9c3d 0f54 de3c
00000040: 2fb5 13bc f29c cebd 4d24 29bc b708 41bd
00000050: 5927 12bd 72d9 aa3c 0f07 97bd 2c18 c13c
00000060: 2aa7 9bbc 2d2d 19bd 190f 50bd 32d9 8e3d
00000070: c280 ffbc 11a8 fc3c e012 0abc f451 983c
00000080: 840f 11bd 7902 523d 9a65 15bd 4fa1 66bd
00000090: cb1f 323d 9181 fc3c ccb2 493c 61cf fdbc
000000a0: e4dd d3bd 4245 2ebd 2c82 a83b 57a6 c63c
000000b0: 6779 3dba 7122 ce3c 5014 0cbb 2b01 803d
000000c0: 55a9 39bd 6026 793d 94ff 683c 4ecb a0bc
000000d0: 83e1 1d3d e461 b03d fd34 673d e035 8bbc
000000e0: 067a 5f3c 9e01 4abd 71ac da3c 9887 0f3d
000000f0: 17e5 703d 10d7 843c ef9c 31bd 21a5 69bc
00000100: 2ad5 a9bb 0b2f 973d 8c0a 0c3d 4aa1 0f3d
00000110: a4e4 b83d 720e 173c 81e3 d63d 2597 293d
00000120: 60c3 a43d 47a1 dc3d 22cd 8abd afaf 453d
00000130: b6c4 b83d cbea a4bc 83c7 f83c 16c4 bfbb
00000140: 40ff f3bc b7bb 91bc 4063 1b3d c14d ef3b
00000150: 1659 20bd 401f 823d 2537 b03d 32d7 1bbd
00000160: 6a8b aa3d f3aa 1e3d 857a 4bbd fa27 24bc
00000170: 9b97 7f3d b894 373b f63d b03c e3ef 943b
00000180: 6d14 30bd baf1 923d 998a 4dbd 9d68 a8bc
00000190: 374f aa3d 1cca e13b 4134 763d b318 a53d
000001a0: 73fd cbbc 91f9 0abd 8d7c ad3d 5446 08bd
000001b0: 60f7 053b a24f 513c 4655 8b3c 04da 0a3d
000001c0: b56d ce3c 0829 663c d4d2 023d f531 b03d
000001d0: 5870 98bd f677 8ebd 01bf d5bc be56 533d
000001e0: 29ac 3dbd 9099 68bc b315 a93d a1c0 30bd
000001f0: bf6b 593d 15a8 8cbd 59c7 333d 9a98 213d
00000200: 1150 54bc 5dfa f23c c9db da3d a989 a8bd
00000210: 07a7 e43c bd63 7d3d bfe2 d8bb 0233 6cbc
00000220: 38b2 e63b 42f2 6f3d a197 0cbd 7b01 cf3b
00000230: 9e46 82bd b041 153d b67c b0bc 61ab c33c
00000240: 0873 a33d 6993 2abd e063 ffbc 4aa5 013d
00000250: 1dad 35bc 8898 b0bc ca09 a23d 5ec7 363d
00000260: 6040 bbbd e1c9 143d 3c33 7d3d 2436 0dbb
00000270: 115f 143c 4c92 913d 830f cdbc 421b edbc
00000280: 1e7b 1fbd 16f7 c23d 6cb8 e23c 2822 153d
00000290: cf50 64bd dd04 043d 5fd8 cb3c c9d8 9dbd
000002a0: c43d 8bbd 4015 4e3d bfda 053d fbda a0bc
000002b0: 9596 18bd a52d 8bbd a2de 883d 0565 31bd
000002c0: 370f d33d ff9f dabb c49c 383c 68a2 62bd
000002d0: a518 b23b 4dbe 923d 98d6 86bd 26e6 673d
000002e0: 947b 66bc fce5 9bbc 8467 70bd 6694 63bd
000002f0: a5f8 9dbc 6251 85bd 74b3 5f3d 61e5 68bd
00000300: 193e 363d f1fc a03d 7fe1 5c3d 704b d63d
00000310: 00be b83d 3725 44bd 1cb8 103b 68ba ed3c
00000320: 3913 6a3d 6fb3 2bbd 4473 903d f400 adbc
00000330: 3cca 8f3d b02e 403c c716 2dbd c355 b1bd
00000340: 2d78 833d 6b8f 323d 6a11 083c 90bc d6bc
00000350: 9db6 b13c 5dc1 dd3c 139d 123d a061 823d
00000360: 319f cf3c c832 173c 34a8 843d c9e9 8ebd
00000370: 7755 d9bc 7ac1 aabc ecfb 0cbd fe86 06bc
00000380: 04d9 973c 82da a13d d65a 6abc ddcc 5e3d
00000390: 99b2 193d 8aab f3bc fd23 063c 7ea6 973a
000003a0: 3001 a8bc 98a8 a1bd cc64 433c e577 8ebc
000003b0: a7f8 063d 5755 a73d 902e 613c 0ac6 a4bd
000003c0: 8229 f3bd 8391 143d dc33 aabc 81f9 773c
000003d0: c814 3a39 4b91 05bd 63b9 8f3d 4f09 073d
000003e0: 6397 d4bc 65b1 31bd 1d3d d13c d838 3dbd
000003f0: 178a 5a3d b34e e23c dea6 5d3d 7008 42bd
0.022474615 0.015640428 -0.06194407 -0.019045321 -0.027402164 0.019909685 0.003296235 0.056805577
0.025879877 0.051062524 0.03164503 -0.017396757 -0.039012514 -0.048045445 0.07643753 0.027139692
-0.0090153655 -0.10088529 -0.010323596 -0.04712745 -0.035682056 0.02085564 -0.07374393 0.023571096
-0.019000608 -0.0373966 -0.05079565 0.069750205 -0.031189326 0.030841859 -0.008427352 0.018593766
-0.035415187 0.05127189 -0.036473848 -0.05630618 0.04348735 0.0308235 0.012310695 -0.030982675
-0.10345057 -0.04254652 0.005142471 0.024249239 -0.0007227868 0.025162907 -0.0021374412 0.06250223
-0.045327503 0.060827613 0.014221091 -0.019628193 0.038545143 0.08612421 0.056447018 -0.016993463
0.0136399325 -0.04931795 0.026693555 0.03504142 0.058812227 0.016215831 -0.043362554 -0.014260561
-0.005182882 0.073820196 0.034189746 0.035065927 0.09027985 0.009219753 0.10492612 0.04140391
0.08045077 0.10772949 -0.06777407 0.048263248 0.09021895 -0.02013149 0.030368572 -0.0058522327
-0.029784799 -0.017789705 0.03793645 0.00730297 -0.03914746 0.06353617 0.08604268 -0.038047023
0.08327372 0.03873725 -0.04967739 -0.010019297 0.06240044 0.0028012227 0.02151392 0.0045451983
-0.04298823 0.07175012 -0.050181005 -0.020557696 0.0831589 0.0068905484 0.060108427 0.080613516
-0.024901127 -0.03392941 0.08471022 -0.033270195 0.0020441636 0.012775334 0.017008435 0.033899322
0.025198797 0.014047869 0.031939343 0.086032785 -0.07443303 -0.069564745 -0.026092054 0.051596396
-0.046306763 -0.014196768 0.08256092 -0.043152455 0.05308127 -0.068679966 0.043891285 0.039452173
-0.012958542 0.029660398 0.10686452 -0.082293816 0.027911676 0.061862696 -0.006618827 -0.014416458
0.0070402883 0.058580644 -0.034324292 0.006317315 -0.063611254 0.036439598 -0.021543842 0.02388543
0.07980925 -0.041644488 -0.031175554 0.031651773 -0.011088637 -0.021557108 0.07912023 0.044623725
-0.09143138 0.03632534 0.06181644 -0.0021547163 0.009055869 0.07107982 -0.02503181 -0.028943662
-0.038935773 0.09519784 0.02767583 0.036409527 -0.055741128 0.0322312 0.024883447 -0.07707364
-0.0679889 0.050313234 0.032679316 -0.019635668 -0.03725298 -0.067958154 0.06683089 -0.04330923
0.103056364 -0.006671905 0.011267845 -0.055330664 0.0054350668 0.07165203 -0.06583899 0.05661597
-0.014067549 -0.019030564 -0.05869247 -0.055561446 -0.019283602 -0.06509663 0.0546145 -0.056859378
0.044492815 0.07860745 0.053925987 0.10463607 0.090206146 -0.047887053 0.0022082394 0.02901955
0.05714724 -0.041919168 0.07053235 -0.021118619 0.07020995 0.011729881 -0.04225805 -0.08658936
0.06419406 0.043593805 0.008304933 -0.02621296 0.021693522 0.027069742 0.03579433 0.06366277
0.025344463 0.009228416 0.06477395 -0.06978185 -0.02653001 -0.02084421 -0.03441994 -0.008210896
0.018536098 0.07903005 -0.014303884 0.05439459 0.03752384 -0.029744882 0.008187291 0.0011570004
-0.020508379 -0.07893485 0.011925887 -0.017391155 0.032951977 0.08170574 0.0137440115 -0.080455855
-0.11873151 0.036271583 -0.020776682 0.01513517 0.00017746084 -0.032609265 0.070177816 0.03296786
-0.025951093 -0.043382067 0.025541836 -0.04619679 0.05335435 0.027625417 0.054114215 -0.047371328

weight f4 [100]
00000000: 5bd8 6f3f b532 7d3f 7f8a 763f 136a 663f
00000010: 2aef 753f 18da 723f 3dc6 773f 00f8 743f
00000020: f839 763f 91b4 6c3f 59ab 733f 28b5 7e3f
00000030: d29f 773f 1099 523f 8a30 723f f418 7e3f
00000040: 2192 783f b293 763f caeb 723f 0f64 713f
00000050: ce33 773f 582b 763f f316 753f f8fe 7b3f
00000060: f8ff 7d3f 1939 783f 61ca 693f ad44 683f
00000070: e6f0 753f 01cb 733f 8931 7e3f fe80 7e3f
00000080: ddd6 6f3f 850a 703f 0ca0 753f 90ad 773f
00000090: a596 743f 4883 763f 4c60 6d3f add8 733f
000000a0: 2740 723f bf63 773f b095 7c3f be27 703f
000000b0: 6287 7a3f 464f 7a3f cce9 7a3f 4f19 7d3f
000000c0: 50bd 773f f2e7 7c3f dd1c 673f 609e 7b3f
000000d0: bfba 743f e43d 723f e4e4 733f 0248 713f
000000e0: f2df 7b3f 0b3c 733f 981d 753f 967e 763f
000000f0: e4dc 763f 1e13 7a3f f11d 713f 2443 7b3f
00000100: c62c 763f 51a9 743f cfc1 723f 8317 7c3f
00000110: 770b 793f 855d 733f 73ff 733f a73e 743f
00000120: 520a 743f ef27 6c3f 2dab 753f 3181 763f
00000130: b80a 763f 601d 803f 16f6 7a3f 8aed 733f
00000140: 676a 703f 9593 793f 0e94 783f 9844 793f
00000150: 5196 753f 815e 733f 89a6 733f 4603 783f
00000160: e733 7b3f 429f 7b3f b3a6 773f d1a6 793f
00000170: 0e06 783f bf93 753f 2a66 703f f309 743f
00000180: b934 793f 3aab 7a3f 39e9 763f 9691 7a3f
0.9368951 0.989055 0.9630508 0.90005606 0.9606806 0.94864035 0.9678686 0.9569092
0.96182203 0.9246302 0.9518333 0.9949517 0.9672824 0.82264805 0.94605315 0.99256825
0.97097975 0.96319115 0.94891036 0.942933 0.9656342 0.9615989 0.9573814 0.98435926
0.992187 0.96962124 0.9132443 0.9072979 0.96070707 0.95231634 0.99294335 0.99415576
0.9368723 0.9376605 0.9594734 0.9674921 0.95542365 0.9629407 0.9272506 0.95252496
0.9462914 0.96636575 0.98665905 0.9381064 0.9786283 0.9777721 0.98012996 0.9886674
0.9677324 0.9879142 0.90278417 0.98288536 0.9559745 0.9462569 0.95271134 0.942505
0.9838859 0.95013493 0.9574828 0.96286905 0.964308 0.9768542 0.9418631 0.98149323
0.9616207 0.95570856 0.9482698 0.98473376 0.9728312 0.95064574 0.9531166 0.954081
0.9532825 0.92248434 0.9596432 0.9629088 0.96110106 1.0008965 0.9803175 0.9528433
0.9391236 0.9749082 0.97100914 0.9737029 0.9593249 0.95066077 0.9517599 0.96879995
0.9812607 0.98289883 0.9673874 0.97520167 0.9688424 0.9592857 0.9390589 0.9532768
0.97346073 0.9791752 0.9644962 0.97878397

bias f4 [100]
00000000: ecb6 313d e5bd 29be 80e0 41be 1c17 47be
00000010: eb82 3c3e 4223 033e 30b8 093e dcdc 023e
00000020: d21d 063e fbbc 3c3e 549b fd3d b00d 26be
00000030: 289c f73d 135d e5bd 7600 a9bd 06a3 4cbe
00000040: c856 07be 35e0 ff3d f657 cb3d 22c8 ea3d
00000050: dc2b f23d f5fe edbd 4e99 d93d 0bd0 20be
00000060: c472 59be 975c 043e 48cc cf3d c4a0 4d3e
00000070: b86a f5bd 8829 393e 259c 28be 158e 3dbe
00000080: 6c0a 753e 68e3 733d 87ad 24be b4eb dbbd
00000090: 3886 7abe 65ee 9f3d e7ea 803e 0df3 3ebe
000000a0: 0b0d 45be cf9e e73d 4261 2abe 8293 8cbe
000000b0: 8a50 563e e89f 063e 07c2 0abe f8c9 0b3e
000000c0: 1864 003e 1ac7 30be 4586 82bd 2314 32be
000000d0: 76a5 40be 12b4 003e 14a6 a43d f53f 8fbe
000000e0: fdcb 213e e9b7 f2bd 6741 25be 0880 f7bd
000000f0: e428 f03d f956 2abe 4fc9 183e aeb1 26be
00000100: 3b41 193e 61ef 6fbe bc5a 373e 48a1 23be
00000110: c68b 30be c3d7 1abe 88f3 b5bd 905f fc3d
00000120: e694 14be 9c06 033e 778d 003e a513 f3bd
00000130: 3da0 a63d a175 2dbe 8e31 30be f097 12be
00000140: d205 033e 7fdb 0e3e f375 1cbe fe25 0fbe
00000150: b824 5abe 1d07 bb3d 270d 8c3d f720 063e
00000160: 4fe5 213e 9526 12be b192 ecbd cc2f 183e
00000170: f4f4 7d3c 7e83 f93d 38ab d5bd 911d fa3d
00000180: 6370 d13d 788e 1fbe 19f6 0e3e 08bb ed3d
0.04338734 -0.16576345 -0.18933296 -0.1944241 0.18409316 0.12806419 0.13449168 0.12779564
0.13097313 0.18431465 0.12383142 -0.16216159 0.12090331 -0.11199393 -0.08252041 -0.19984064
-0.13216698 0.12493936 0.099288866 0.114639536 0.11824772 -0.11620895 0.10624944 -0.15704362
-0.21235186 0.12925945 0.101463854 0.20080858 -0.119832456 0.18082249 -0.16465814 -0.18511231
0.23929757 0.059543043 -0.1608182 -0.10738316 -0.24465263 0.07809142 0.25179216 -0.18647404
-0.19243257 0.11309587 -0.16638663 -0.2745629 0.2092916 0.13146937 -0.13550578 0.13651264
0.12538183 -0.17263451 -0.06373266 -0.17390494 -0.18813118 0.12568691 0.080394894 -0.27978483
0.15800472 -0.11851484 -0.1613823 -0.12084967 0.11726549 -0.1663474 0.14920543 -0.16278717
0.1496629 -0.2343116 0.17905706 -0.15979493 -0.1724082 -0.15121369 -0.088843405 0.123229146
-0.14509925 0.1279549 0.12553965 -0.11868981 0.08136032 -0.16939403 -0.17206404 -0.14315772
0.12795189 0.13950919 -0.15279369 -0.13979337 -0.2130307 0.09132216 0.06838446 0.13098513
0.1581013 -0.1427253 -0.11551417 0.14861983 0.015500296 0.12183283 -0.10433048 0.122126706
0.10226514 -0.15581691 0.13961066 0.11607939

running_mean f4 [100]
00000000: 8784 da3e c592 cf3e c4d7 0a3f e7db 253f
00000010: 5629 053f 276d 0d3f c6ae 0b3f 8037 0b3f
00000020: a6c7 f73e 10d3 363f a5c1 013f 658e df3e
00000030: 0328 f13e 482f 5c3f 897e db3e 1cf0 a63e
00000040: f19f c03e 7e2d fb3e b0ff 153f 60db df3e
00000050: 88ae dd3e 20cd f73e b05a e63e a13f df3e
00000060: fdea d83e 71a0 da3e e9ee 133f b09d 2c3f
00000070: eca2 f33e 696e 083f 4d74 b73e ea24 1d3f
00000080: d2bf 263f 26ed bf3e f7b5 f63e 5c0f db3e
00000090: 3f63 ec3e fece e33e 447a 693f d171 4d3f
000000a0: 3cf1 043f 1c92 c23e ca47 363f 9019 3d3f
000000b0: ff24 203f 4667 193f c1ec a23e 9fc3 103f
000000c0: 1d3d fa3e 776c ec3e 78f1 323f ba37 203f
000000d0: 63e9 cb3e 4c4f dc3e 86ef df3e 4e88 743f
000000e0: 950b 223f 20fe 0f3f 3063 ad3e e42c 053f
000000f0: 9997 003f e7d2 ec3e ba93 023f 2fec 1e3f
00000100: 0928 133f 43dc 203f 7b34 233f 4b0d 323f
00000110: b2c9 393f de88 b93e f17a fc3e 6aa2 fa3e
00000120: 60df 1e3f 3c49 d33e 1e50 053f cca7 bb3e
00000130: 1d34 c23e e0b5 ad3e 936e 2f3f eab2 433f
00000140: 6487 fe3e 7372 153f 07e6 053f cad4 e83e
00000150: d09c bb3e e980 ac3e a7dd 0b3f bac6 0b3f
00000160: d638 fc3e 162f af3e 38ce ac3e e630 e93e
00000170: 0cd4 f73e 5c05 dd3e 29fa d23e a906 f03e
00000180: 9185 c73e 5581 383f 1f40 e93e dbdb b33e
0.42679235 0.40541664 0.5423548 0.6478867 0.520162 0.5524468 0.5456356 0.5438156
0.48394507 0.71415806 0.50686103 0.43663326 0.4710084 0.86009645 0.42869976 0.32605064
0.37622026 0.49058145 0.58593273 0.43722057 0.4329722 0.48398685 0.44991064 0.43603233
0.42366782 0.42700532 0.5778642 0.6742811 0.47585237 0.5329347 0.35830918 0.6138445
0.65136445 0.37485617 0.48185703 0.42785156 0.4616947 0.4449386 0.9120219 0.80251795
0.51930594 0.38002098 0.7120329 0.7386713 0.6255645 0.5992321 0.31821254 0.56548494
0.4887475 0.46176502 0.698997 0.6258503 0.39826497 0.4302925 0.4373743 0.95520484
0.6329892 0.5624714 0.33864737 0.5202162 0.5023132 0.46254656 0.5100666 0.6207914
0.57482964 0.6283609 0.63751954 0.69551533 0.7257339 0.36237234 0.49312547 0.48952037
0.62059593 0.4126681 0.52075374 0.36651456 0.37930384 0.33927822 0.685281 0.76444876
0.4971267 0.5837776 0.5230412 0.45474845 0.36643076 0.336921 0.5463509 0.5460011
0.49262112 0.3421561 0.33751082 0.4554512 0.48403966 0.4316815 0.41206482 0.4688008
0.3896909 0.72072345 0.45556733 0.35128674

running_var f4 [100]
00000000: 52d9 383f d124 df3f c4d0 1a3f 3999 983f
00000010: f16b 083f e207 253f 2a91 1f3f 9534 2f3f
00000020: f111 f73e 4e1f 813f 69a2 073f a371 c33f
00000030: 7e58 e33e 9a4e c43f c3a5 063f 55fe b93f
00000040: 5458 8e3f 6c82 fb3e 34de 543f 9e0c c13e
00000050: c772 193f d379 dd3e 6d9a c63e f6b6 b63f
00000060: edca 3240 96b0 dc3e a429 153f b862 823f
00000070: 14ba ee3e e1a6 ee3e c675 973f 1a87 b03f
00000080: fb0b 423f adfe 9c3e 7f0d 853f 4448 f63e
00000090: 98e7 1a40 b5d2 fa3e fd24 e83f 7d6a 8a3f
000000a0: 8ae7 a73f 3707 bf3e ee74 8a3f 0c50 923f
000000b0: 5c16 443f 194f 723f 4eec 753f 37b7 0f3f
000000c0: e37e 113f d79d b43f 06bf c53f d00a 5a3f
000000d0: 7090 e53f 417a bf3e 3225 e73e f212 5240
000000e0: c3b3 373f 4952 4d3f 4573 883f dd27 883f
000000f0: 60e0 003f 0574 ed3f 2a3c 103f bffd 803f
00000100: 79a8 3f3f 3062 df3f 7919 873f 9bee 6c3f
00000110: 133e 873f c486 be3f 5492 163f 7dd9 f73e
00000120: de6c 0840 9d55 ae3e e3c7 fe3e 27ad 1d3f
00000130: dd48 8f3f 64df dc3f d047 903f 6b41 743f
00000140: d8be ff3e 8414 323f c034 0340 f01d 833f
00000150: acb4 ca3f 6421 653e 677e 2b3f ab2c 1e3f
00000160: a842 f23e 7c65 8e3f 1e71 7c3f ed89 d23e
00000170: 3fd3 fa3e a5c8 053f cfb6 193f 6be9 bf3e
00000180: a67d b03e 016f 843f 9763 0e3f b731 a03e
0.72206604 1.743311 0.604748 1.192176 0.53289706 0.64465153 0.6233088 0.6843961
0.48255876 1.0087678 0.52982193 1.5269054 0.44403452 1.5336487 0.5259668 1.4530741
1.1120706 0.49122941 0.83151555 0.3770494 0.5994076 0.43257007 0.38789693 1.4274585
2.7936356 0.43103474 0.58266664 1.0186377 0.4662634 0.46611694 1.1832817 1.379123
0.7579953 0.30663052 1.0394744 0.4810201 2.4203854 0.48988882 1.8136288 1.0813748
1.3117535 0.37310192 1.0816934 1.1430678 0.7659662 0.94651943 0.960637 0.5613894
0.5683424 1.4110669 1.5448921 0.8517275 1.7934704 0.3739796 0.45145565 3.2824063
0.7175867 0.8020368 1.0660177 1.0637165 0.5034237 1.8551031 0.56341803 1.0077437
0.74866444 1.745184 1.0554649 0.92551583 1.0565819 1.4884877 0.5881703 0.48408118
2.1316447 0.34049693 0.49761876 0.61592335 1.1194111 1.7255673 1.1271915 0.9541232
0.4995029 0.69562554 2.0500946 1.0243511 1.5836387 0.22376019 0.6698975 0.6178691
0.4731648 1.112472 0.98610103 0.41120854 0.48989293 0.52259284 0.6004457 0.3748277
0.34470862 1.0346376 0.5562071 0.3128793

weight f4 [2, 100]
00000000: 5866 99bd 1715 03bd c9c2 e4bb c7c4 bdbd
00000010: b0eb c7b9 b299 863d 216d 44bd 462e 9d3d
00000020: 495f 7b3d 0553 8abd e01d ba3d 20cb 92bd
00000030: 7d10 5b3d 3f55 193d 2a07 b8bd ea0c d3bd
00000040: 5338 f73c 8328 743d ee9f 0abd 77c6 e93c
00000050: 2e76 ac3d 33b0 67bc 7f90 963d 1f61 51bd
00000060: 4701 52bd 3fc9 593d 6797 39bd 52be a93d
00000070: 102a b9ba df31 193d 82ce c3bd e4c2 28bd
00000080: c0c3 cdbc 8865 a43d 4d1d 86bd 6445 b53d
00000090: 3a4a 0ebb 3b05 6c3d 08a3 cfbc 5c1e 33bd
000000a0: c67f cfbd 5641 6a3d b5ef 21bd 8970 003d
000000b0: a705 79bc a74e ba3d 61ad 8a3c 8466 2b3d
000000c0: ecf8 993d 36a5 41bd cf34 ac3c 528a 87bd
000000d0: 7dfb fc3b 60e4 163c 2c9f 173c 25e5 30bd
000000e0: be4b 823d b948 19bc bed9 80bd 2e74 a5bc
000000f0: 1fba 513d 776a c8bd 81eb 21bd 542d b9bd
00000100: c22a a03d a8e0 debd 3a45 d23d 5a00 a6bd
00000110: 7eb6 49bd f451 24bd ae6c e6ba 847e 7a3d
00000120: 592b 02ba 4143 05ba cfd4 2d3d 7801 7fbd
00000130: 71bd 6dbc 9597 c3bd 5d7b 89bd 1c4d 45bd
00000140: 6aaa ca3d c433 0f3d 98fa 76bd 5c36 13bd
00000150: b281 00be 8109 1c3d 963f 1f3d 9570 c43d
00000160: 2926 5f3d 7cb5 b3bd 8231 a1bc d950 e03d
00000170: eb58 59bd a3b5 2d3d 343a 3d3d 9147 363d
00000180: 0781 3c3d e3ae 88bd 8c38 5b3d 638b 203c
00000190: 0a10 acbd e2ec df3d 765e 643d 3f1d 94bd
000001a0: 9028 92bd 2a3c fb3a 3b24 d4bd cbef 74bd
000001b0: a0bf 2bbc fab7 adbd 22eb 0fba 97d2 0b3e
000001c0: 6469 2abd 766e 433d 51c7 52bd 1c44 233d
000001d0: 8efe ba3d d942 45bd ff89 a2bd 9090 2f3c
000001e0: f46b a63b 8be6 0a3d 88d5 d13c c82a df3d
000001f0: 4ebc ed3d 90e8 b0bc 6669 8abd a67c 383d
00000200: 8f04 bf3c 6961 03bc 24ba 513c 8d42 8d3d
00000210: c237 70bd 85d3 983d 494a 973d 6cb8 ad3d
00000220: fcda af3d 312b 193d 62f1 a8bd e2ad 3abc
00000230: 4bb5 33bd 4d51 6cbc cffb 913d 22e9 d93d
00000240: 2c9f 9abd d15f cfbd cfd9 983d 3eac 84bd
00000250: d079 c3bc d97c 6b3d 1768 063d 3b2f b23c
00000260: 8cdc f73d 45c4 8cbd f42b 07bd e793 053d
00000270: 0d48 13bd 7e9a 933d 98f1 683c 4080 993c
00000280: 9137 f5bc ed23 ec3c 1482 85bd 64e5 3f3d
00000290: bb4e 21bd e649 53bc c221 943d 8e7c ac3c
000002a0: 8c95 4d3d 6474 e0bc f075 453d 51ff 45bd
000002b0: e366 4c3d d4ce abbb c213 b6bc 52f5 5e3c
000002c0: 9a8a 11bd 573b b23d 0652 593d 2062 be3a
000002d0: 7c0e 463d b35b a4bd f4d1 b03d a29d a13b
000002e0: 6f63 e3bc 307a 18bc d2e7 ca3b 65cf 6e3c
000002f0: 13e0 ecbc 5229 eb3c 552e b23c c35d 04bd
00000300: 748c 5bbd c876 83bd 0be7 8e3d 675f 12bd
00000310: 2e8e dbbb 5747 803d 39c0 92bd de57 3ebd
-0.07490224 -0.032002535 -0.006981228 -0.09266048 -0.0003813184 0.06572284 -0.047955636 0.076748416
0.061370168 -0.06754116 0.090877295 -0.07167649 0.05348252 0.037434813 -0.089857414 -0.103051975
0.030178225 0.059608947 -0.033843927 0.028537018 0.084209785 -0.01414113 0.07351779 -0.051118013
-0.05127075 0.05317044 -0.045310404 0.08288254 -0.0014126915 0.037401076 -0.095608726 -0.041201487
-0.025117755 0.08027178 -0.065485574 0.08851126 -0.0021711723 0.057622176 -0.025346294 -0.043730125
-0.10131793 0.057191215 -0.039535243 0.031357322 -0.0151991015 0.09097033 0.016928377 0.041845813
0.07518181 -0.047276698 0.021021275 -0.066181794 0.0077204094 0.009209722 0.009254258 -0.04318728
0.06362103 -0.009355717 -0.06291531 -0.020197 0.05120289 -0.097859316 -0.039531235 -0.09041849
0.078206554 -0.108826935 0.1026711 -0.08105536 -0.049246304 -0.04011722 -0.0017579996 0.06115581
-0.0004965566 -0.0005083569 0.04243928 -0.06225726 -0.014510498 -0.09550396 -0.06712983 -0.04816924
0.09895785 0.034961477 -0.06029758 -0.035940513 -0.12549475 0.038095 0.038879 0.09591786
0.05447975 -0.0877485 -0.019676927 0.109529205 -0.053063314 0.04240955 0.046198085 0.044501845
0.046021488 -0.06673982 0.053520724 0.009798857 -0.08401497 0.10933854 0.055754147 -0.07232141
-0.07136643 0.001916771 -0.10358473 -0.059798997 -0.010482699 -0.08482356 -0.00054900546 0.13654552
-0.041604415 0.047712766 -0.051459614 0.039859876 0.09130584 -0.048159454 -0.07936477 0.010715619
0.005078787 0.03391127 0.025614515 0.10896832 0.11608182 -0.02159527 -0.067583844 0.04504075
0.023317603 -0.00801883 0.012800727 0.06897459 -0.058646925 0.07462219 0.07387216 0.08482441
0.0858669 0.037394706 -0.08249165 -0.011393996 -0.043874066 -0.0144236805 0.07128107 0.1064017
-0.07549891 -0.101256974 0.07463419 -0.06478165 -0.023861796 0.05749211 0.03281411 0.021751037
0.12102613 -0.06873373 -0.0330009 0.032611754 -0.035957385 0.072072014 0.014217757 0.018737912
-0.029933723 0.028825724 -0.06518951 0.046849623 -0.039381724 -0.012896037 0.07233001 0.021055486
0.050191447 -0.02739925 0.048208177 -0.04833919 0.049902808 -0.0052431617 -0.022226218 0.013608294
-0.03553257 0.087027244 0.05305674 0.0014525093 0.048353657 -0.08025303 0.086337954 0.0049321214
-0.027757375 -0.0093064755 0.006192186 0.014575814 -0.02891544 0.028706226 0.021750608 -0.03231598
-0.053600743 -0.0641914 0.06977662 -0.035735514 -0.0067002987 0.06263607 -0.0716557 -0.046470515

bias f4 [2]
00000000: d192 293e c31b 1abe
0.16559912 -0.15049653
